checkpoint_actor_critic.pth (torch, 59707 bytes, 13 tensors)

fc1.weight f4 [128, 33]
0.17137173 -0.07027463 0.106898785 0.043313995 -0.0074228495 0.09107873 -0.08766597 0.0271959
0.041187003 -0.024433747 0.17075449 -0.06659515 -0.046362564 0.03869137 0.006478697 -0.1358929
-0.055029124 0.01739493 0.002352953 0.08286694 -0.17233554 -0.024796784 0.099969566 -0.04677154
-0.112443864 -0.15680318 -0.11510381 -0.007873118 -0.12621504 -0.008370742 -0.04050806 -0.08379229
-0.024588943 0.08473 -0.012007207 -0.08117625 -0.10695952 -0.07916118 0.064561754 -0.13180901
-0.006511122 0.09986496 0.12526843 0.14228144 0.094918996 0.035068065 -0.07871517 -0.13495453
0.0035437495 0.06979297 0.13098091 0.09022063 0.16868141 0.12206715 -0.04083015 0.0043732226
-0.06799523 0.11242837 -0.11390449 0.072818354 -0.09559431 -0.09775045 0.022321835 -0.115456045
0.09395835 -0.15161483 -0.09496107 0.08329669 0.0059125423 -0.06559029 -0.104777545 0.12608314
0.02538222 0.03374283 -0.029586077 -0.006558314 -0.0896271 0.032732025 0.02413693 -0.09711366
0.03804052 0.031806365 -0.08785045 0.08033463 0.007191807 -0.07924641 0.013661206 0.16611135
0.10132709 -0.10030901 -0.11744655 -0.12992752 0.06265457 0.099016696 0.13486388 0.13950154
0.02179864 0.09493294 -0.06485172 -0.023833632 -0.07901511 0.0984661 0.14243591 -0.08498803
-0.096016854 -0.07016087 0.13656539 0.11187297 0.036950365 -0.005586371 0.13949916 -0.08102236
-0.018152282 -0.0131816715 -0.17298676 0.1599448 -0.008958191 -0.055892624 0.13281676 0.17314363
0.023218617 0.013322368 0.07757774 0.11502445 -0.117866665 -0.14381813 0.15002617 -0.026345834
0.050678164 0.14063743 0.056384295 0.0904614 0.060688287 -0.06880081 -0.14732033 -0.12568304
-0.0067617893 -0.022817567 0.14424822 0.12967679 -0.025038406 0.08588117 0.16176018 -0.016380444
-0.027335346 -0.16861472 0.09959403 -0.15210749 0.15118897 0.09035626 0.04610528 0.09031919
-0.032532364 0.017867476 0.03977701 -0.016313657 -0.005855605 0.12579551 0.040652722 -0.12678945
0.11576635 -0.052654155 0.13264593 0.07772896 0.15479401 0.028510332 0.11680406 0.03227462
0.10914853 -0.028385013 0.015608415 -0.16989201 0.037147775 -0.14151612 -0.006045878 0.0353446
-0.14724973 -0.10410914 0.047365576 -0.015709892 -0.10631832 -0.03133382 -0.17224218 0.05823435
-0.16431907 0.06687991 -0.036810875 -0.025231719 -0.07463765 0.10880864 0.03835939 0.11255896
0.019393414 0.15127519 0.09041679 0.16226915 -0.056487672 -0.11464401 -0.011309683 0.051455557
0.10514036 -0.05041551 0.026361346 -0.17160204 0.034119472 0.023934767 0.131073 -0.09704481
-0.12939225 -0.1508937 -0.14481258 0.15575108 -0.08302241 -0.042967364 0.049962536 -0.16740726
0.13179693 -0.12976795 -0.005777329 0.10379839 -0.10944429 -0.091074616 0.11870745 -0.053030528
-0.014268547 -0.012243077 -0.11040625 -0.096729115 0.09256661 -0.09367995 0.14840081 0.14338449
-0.061105922 0.026563674 0.15270272 -0.05409889 0.031252503 0.1671859 0.045019343 -0.121052444
0.1313335 0.07003175 -0.043850243 -0.053059645 0.135173 0.13942707 -0.15580091 -0.13701384
-0.051904835 0.058833763 0.03787525 0.07419272 0.17254809 0.086172014 -0.0129341185 0.059827477
00000000: 127c 2f3e 25ec 8fbd c0ed da3d 046a 313d
00000010: 603b f3bb 7c87 ba3d 378a b3bd f0c9 de3c
00000020: b4b3 283d 4829 c8bc 44da 2e3e 0a63 88bd
00000030: ace6 3dbd d87a 1e3d 404b d43b 8227 0bbe
00000040: 3866 61bd d07f 8e3c 0034 1a3b 24b6 a93d
00000050: ba78 30be a022 cbbc d8bc cc3d 8493 3fbd
00000060: f848 e6bd 0391 20be 8cbb ebbd 40fe 00bc
00000070: 843e 01be 7025 09bc c8eb 25bd 4b9b abbd
00000080: c06e c9bc ec86 ad3d e0b9 44bc bc3f a6bd
00000090: 980d dbbd 421f a2bd f438 843d f1f8 06be
000000a0: 405b d5bb 0086 cc3d 5e46 003e 3ab2 113e
000000b0: e464 c23d 88a3 0f3d 6b35 a1bd 8531 0abe
000000c0: 403e 683b 9eef 8e3d dc1f 063e 98c5 b83d
000000d0: d2ba 2c3e 58fe f93d 843d 27bd 404d 8f3b
000000e0: 1541 8bbd d840 e63d c246 e9bd ca21 953d
000000f0: f3c6 c3bd 6331 c8bd 48dc b63c 3874 ecbd
00000100: 3c6d c03d eb40 1bbe f37a c2bd 7497 aa3d
00000110: 00be c13b 3454 86bd 9c95 d6bd f01b 013e
00000120: 60ee cf3c ec35 0a3d 805e f2bc 20e7 d6bb
00000130: 6a8e b7bd 0412 063d d0ba c53c 87e3 c6bd
00000140: 60d0 1b3d 6447 023d f0ea b3bd 7c86 a43d
00000150: 40a9 eb3b f14b a2bd 40d3 5f3c 1819 2a3e
00000160: 9484 cf3d cf6e cdbd d187 f0bd b80b 05be
00000170: 0a51 803d 44c9 ca3d c219 0a3e 7ed9 0e3e
00000180: 1093 b23c 346c c23d fbd0 84bd c03e c3bc
00000190: add2 a1bd 98a8 c93d b8da 113e 340e aebd
000001a0: 7ca4 c4bd 81b0 8fbd ccd7 0b3e a81d e53d
000001b0: 4459 173d e00d b7bb ded8 0e3e 0def a5bd
000001c0: 18b4 94bc f0f7 57bc 7123 31be 92c8 233e
000001d0: 60c5 12bc aaef 64bd 1e01 083e 904c 313e
000001e0: f834 be3c 1046 5a3c 14e1 9e3d f091 eb3d
000001f0: 1464 f1bd 0f45 13be 76a0 193e 38d3 d7bc
00000200: e893 4f3d 4203 103e 38f3 663d d443 b93d
00000210: 4894 783d 70e7 8cbd 24db 16be 0eb3 00be
00000220: 0092 ddbb e8eb babc ceb5 133e fec9 043e
00000230: 581d cdbc 78e2 af3d 76a4 253e 4830 86bc
00000240: 60ee dfbc 56a9 2cbe f4f7 cb3d 11c2 1bbe
00000250: 48d1 1a3e b40c b93d e4d8 3c3d 44f9 b83d
00000260: a840 05bd d05e 923c 38ed 223d 38a4 85bc
00000270: 60e0 bfbb 8ad0 003e 7883 263d 18d5 01be
00000280: e816 ed3d e2ab 57bd 56d4 073e 5c30 9f3d
00000290: 5282 1e3e 808e e93c f836 ef3d 6432 043d
000002a0: 4489 df3d b087 e8bc 70ba 7f3c 2cf8 2dbe
000002b0: 4428 183d 9ae9 10be 801c c6bb 80c5 103d
000002c0: a2c8 16be 2c37 d5bd 6802 423d 08b2 80bc
000002d0: 6bbd d9bd e457 00bd 4160 30be 2487 6e3d
000002e0: 4243 28be 56f8 883d 00c7 16bd c0b2 cebc
000002f0: a0db 98bd 10d7 de3d bc1e 1d3d 5085 e63d
00000300: f0de 9e3c e2e7 1a3e 702c b93d e229 263e
00000310: 9e5f 67bd 7bca eabd 404c 39bc 10c3 523d
00000320: d453 d73d 7e80 4ebd c0f3 d73c 72b8 2fbe
00000330: dcc0 0b3d d812 c43c 0038 063e 6ebf c6bd
00000340: 677f 04be e183 1abe c049 14be 367d 1f3e
00000350: a707 aabd 8cfe 2fbd 84a5 4c3d cf6c 2bbe
00000360: c6f5 063e e4e1 04be c04f bdbb 4094 d43d
00000370: 5424 e0bd 5485 babd e41c f33d 8a36 59bd
00000380: a0c6 69bc 3097 48bc ac1c e2bd ea19 c6bd
00000390: 9093 bd3d 46db bfbd 62f6 173e 62d3 123e
000003a0: 344a 7abd 109c d93c 1a5e 1c3e cc96 5dbd
000003b0: a002 003d c832 2b3e 3466 383d 58ea f7bd
000003c0: 4a7c 063e ce6c 8f3d 509c 33bd 1255 59bd
000003d0: ca6a 0a3e f8c5 0e3e 468a 1fbe 5b4d 0cbe
000003e0: 2a9a 54bd acfb 703d 1423 1b3d 5af2 973d
000003f0: 72b0 303e f47a b03d a0e9 53bc a80d 753d

fc1.bias f4 [128]
-0.14473191 0.15180695 -0.06279554 0.14642599 0.12271333 -0.009480238 -0.1412884 -0.036583766
-0.13626249 0.097132385 -0.072682135 0.011328071 -0.09850307 0.13900006 -0.096840695 -0.0767305
-0.17037056 0.10807344 -0.04673259 -0.1363393 -0.14774945 -0.17164136 -0.0061243176 -0.1511101
0.0444227 0.13754594 0.09427667 -0.06336897 -0.10573895 -0.16829878 -0.11942533 -0.1481472
0.03992641 0.023376808 0.13749227 -0.07147972 -0.016187385 -0.072139524 0.033324838 -0.072778195
0.015771315 0.027538344 -0.09468406 -0.132071 -0.12506509 -0.06272779 -0.032324523 0.07443595
0.067171276 -0.14861895 -0.008329749 0.018703073 -0.12029247 0.10292527 -0.09719387 0.14225629
-0.12175528 -0.042127773 -0.14748003 -0.12989885 0.16353437 0.08870816 0.09213489 0.15117681
-0.13429245 -0.004399374 -0.10943105 -0.113718554 0.11886427 -0.14801373 -0.1059186 0.099273115
-0.061038353 -0.046577856 0.13845086 0.14739433 0.12039891 0.031762406 -0.11501962 -0.10871132
0.114292294 -0.069986515 -0.0043046027 0.144359 0.008606419 0.011996359 -0.073385574 0.15447873
-0.04578428 0.15484491 0.042498186 0.15980077 -0.0116383135 -0.04375516 -0.10707913 -0.10897403
0.100373924 0.039361775 0.12744102 0.16029999 0.16678414 -0.011811152 -0.07508128 -0.02729705
-0.15744312 0.0012333393 -0.1636455 0.05021301 -0.079587445 0.07884464 -0.039659888 0.009200022
0.034463033 0.045092374 0.08982268 0.08283064 0.053448677 0.042421177 0.10424116 -0.008697942
0.13962302 0.02108191 -0.11639479 0.048330396 0.062328666 -0.12640025 -0.025941 -0.10717017
00000000: 9a34 14be 4873 1b3e f39a 80bd b2f0 153e
00000010: 2051 fb3d 0053 1bbc e8ad 10be dcd8 15bd
00000020: 6588 0bbe 58ed c63d 5fda 94bd 6099 393c
00000030: fabb c9bd 0856 0e3e 6a54 c6bd e124 9dbd
00000040: 9f75 2ebe 9c55 dd3d ac6a 3fbd 889c 0bbe
00000050: a24b 17be c1c2 2fbe 80ae c8bb 9bbc 1abe
00000060: 94f4 353d d8d8 0c3e 2014 c13d 97c7 81bd
00000070: aa8d d8bd 8456 2cbe 4495 f4bd e6b3 17be
00000080: e089 233d b880 bf3c c6ca 0c3e f663 92bd
00000090: 689b 84bc e3bd 93bd a07f 083d bc0c 95bd
000000a0: d832 813c 1898 e13c b7e9 c1bd 9f3d 07be
000000b0: 1011 00be 6d77 80bd b866 04bd e071 983d
000000c0: 1891 893d 912f 18be 8079 08bc 3037 993c
000000d0: e65b f6bd 7cca d23d 940d c7bd a2ab 113e
000000e0: d55a f9bd 2c8e 2cbd 0105 17be 3404 05be
000000f0: 8e75 273e a0ac b53d 38b1 bc3d 18ce 1a3e
00000100: f683 09be a028 90bb 631d e0bd 46e5 e8bd
00000110: 1c6f f33d e990 17be daeb d8bd b44f cb3d
00000120: 5a03 7abd 6cc8 3ebd 10c6 0d3e 8aee 163e
00000130: b493 f63d 4c19 023d 688f ebbd 0aa4 debd
00000140: 1412 ea3d 1755 8fbd a00d 8dbb d8d2 133e
00000150: f001 0d3c 608c 443c 2d4b 96bd ac2f 1e3e
00000160: 4c88 3bbd aa8f 1e3e 9412 2e3d d0a2 233e
00000170: a0ae 3ebc 9c38 33bd 4e4c dbbd c72d dfbd
00000180: d890 cd3d d039 213d e67f 023e ae25 243e
00000190: 76c9 2a3e 9083 41bc 37c4 99bd 109e dfbc
000001a0: c538 21be 00a8 a13a b092 27be 28ac 4d3d
000001b0: befe a2bd 4c79 a13d 6872 22bd b0bb 163c
000001c0: 1c29 0d3d c8b2 383d f4f4 b73d 1ca3 a93d
000001d0: 00ed 5a3d d4c1 2d3d 647c d53d d081 0ebc
000001e0: 56f9 0e3e f8b3 ac3c 6460 eebd 18f6 453d
000001f0: 584c 7f3d 116f 01be 3882 d4bc 097c dbbd

fc2.weight f4 [64, 128]
-0.031937554 0.05936613 -0.021123149 0.08477252 -0.024919242 -0.06863353 0.017220065 -0.004732564
0.07701323 0.07322466 -0.00024577975 0.017572619 0.0044636056 -0.0049136803 -0.017111838 -0.049401227
0.039381705 -0.07051076 -0.0083792135 0.045275442 -0.05932681 -0.035754267 -0.03883258 0.06074559
-0.021186016 0.08621653 -0.06323723 -0.033992223 -0.02497004 -0.07487054 -0.087301284 -0.06304145
-0.039302148 0.025937907 0.08660392 0.033498555 0.058375873 -0.0038445517 0.08667291 -0.051385723
-0.07993022 -0.034561794 -0.00061124563 -0.054315865 -0.049226865 -0.07275272 -0.04754804 0.064114
-0.05608132 0.005833797 0.022092573 0.011013463 0.08566023 -0.07299713 0.03921897 -0.026171591
-0.012591131 0.036071576 -0.04061065 -0.08057701 0.015803412 0.07778067 0.0045264885 -0.08327816
-0.013049908 -0.034015372 -0.040951572 0.03424689 -0.08775332 0.009569533 -0.031424154 -0.018129773
0.04868024 0.010750815 -0.07421982 -0.06577047 0.009163685 0.024856016 0.042961396 -0.055012006
0.022694834 -0.06938507 0.045217104 -0.08799086 -0.046203166 0.07303097 0.024944201 -0.04015721
0.046861596 0.062409468 0.062231235 0.0745709 -0.019466028 0.022380628 0.024469204 0.010497622
0.032507077 -0.03784882 0.07577991 0.022966407 -0.033574253 -0.025221847 0.052440636 -0.086903505
0.016089633 -0.038974486 -0.01756861 0.033889182 -0.06222689 -0.07802964 0.083094634 -0.066743955
-0.005881384 -0.0720783 0.039407812 -0.085645765 -0.08522896 -0.050077766 -0.047913842 -0.053713016
0.01788649 0.04882107 -0.008238979 0.042746983 0.016334347 0.07145045 -0.03357044 0.047170468
0.041985877 -0.039096385 0.0817888 -0.058517434 -0.00042015314 -0.058059685 0.073169775 -0.029634513
0.015676677 -0.047529463 -0.03966402 -0.085967064 -0.029257204 -0.057115912 0.07853513 0.03199482
0.041670628 -0.04970816 0.07327858 -0.03431792 0.021830201 0.08069714 0.030699193 0.019662693
0.034776635 -0.07917242 -0.028218854 -0.07809537 0.043890066 0.011976525 -0.042792812 -0.061608672
-0.074886374 -0.033506848 0.026501276 0.055219777 0.0012439862 -0.07897667 -0.022626966 -0.010355756
0.012824208 0.074378155 0.058672376 0.0011794269 0.08785654 0.08491457 -0.03592882 0.053558998
-0.053553883 0.022477768 0.07216457 0.03683085 0.05322107 0.029110119 -0.08132781 -0.05695405
0.020378232 0.05718168 0.0021900758 0.073265515 0.0005912334 0.06884315 -0.052207764 0.07400858
-0.059945546 0.08395105 -0.08000255 0.052560575 -0.080175 -0.07691858 0.08304069 -0.022696614
-0.074936055 0.064888515 -0.028625865 0.03309442 0.065593146 -0.0049654245 0.040778868 -0.044542782
-0.06156846 0.021565802 -0.019017123 -0.009073265 0.026613154 -0.081043676 0.05580301 0.0689423
-0.008900888 -0.015875138 0.053410165 0.017278403 -0.00545457 0.06777162 -0.015658759 0.069523744
0.012050629 -0.036607075 0.07849043 0.013240457 -0.057947606 -0.049397074 -0.06971288 -0.016161494
0.03849099 -0.072450124 -0.008462898 0.03167221 -0.06638647 -0.061782055 0.023300871 0.029002614
-0.019108094 -0.0121172 0.08548012 0.002981998 0.04022283 -0.039208107 -0.052150276 -0.02122841
-0.038740538 -0.016415447 -0.02582626 0.043308355 -0.034425292 -0.024950482 0.022761248 0.07141412
00000000: f4d0 02bd e629 733d 740a adbc 379d ad3d
00000010: 7023 ccbc bc8f 8cbd 1811 8d3c a013 9bbb
00000020: 1db9 9d3d cff6 953d 00dc 80b9 74f4 8f3c
00000030: 7043 923b f002 a1bb 202e 8cbc f158 4abd
00000040: b64e 213d f267 90bd f848 09bc be72 393d
00000050: ab00 73bd 1173 12bd e90e 1fbd 5ed0 783d
00000060: 4c8e adbc 4b92 b03d 8582 81bd 6e3b 0bbd
00000070: f88d ccbc ba55 99bd 04cb b2bd e01b 81bd
00000080: 4afb 20bd bc7b d43c 655d b13d c835 093d
00000090: 8a1b 6f3d e0f4 7bbb 9181 b13d d679 52bd
000000a0: 75b2 a3bd ab90 0dbd 003c 20ba 507a 5ebd
000000b0: 1ca2 49bd 61ff 94bd bcc1 42bd 334e 833d
000000c0: 87b5 65bd 7029 bf3b 7cfb b43c d071 343c
000000d0: a16e af3d 857f 95bd 12a4 203d ce65 d6bc
000000e0: 084b 4ebc cabf 133d 5a57 26bd 8f05 a5bd
000000f0: 2876 813c 794b 9f3d f052 943b bd8d aabd
00000100: 48cf 55bc b453 0bbd d6bc 27bd 7846 0c3d
00000110: 03b8 b3bd 88c9 1c3c 9db6 00bd e484 94bc
00000120: ee64 473d 3024 303c 9000 98bd abb2 86bd
00000130: 4823 163c d89e cb3c 4af8 2f3d 4554 61bd
00000140: 84ea b93c c219 8ebd 9235 393d 8d34 b4bd
00000150: 883f 3dbd 4391 953d c857 cc3c e37b 24bd
00000160: f2f1 3f3d 12a1 7f3d 2ee6 7e3d a1b8 983d
00000170: 3877 9fbc 9457 b73c a473 c83c 38fe 2b3c
00000180: 2426 053d 5d07 1bbd 7f32 9b3d 0c24 bc3c
00000190: 2885 09bd 0c9e cebc fecb 563d 77fa b1bd
000001a0: 68ce 833c b6a3 1fbd 0cec 8fbc 62cf 0a3d
000001b0: a0e1 7ebd 01ce 9fbd 852d aa3d 0eb1 88bd
000001c0: a0b8 c0bb ca9d 93bd 166a 213d 0c67 afbd
000001d0: 858c aebd 581e 4dbd 4e41 44bd 2e02 5cbd
000001e0: b086 923c 9af8 473d c8fc 06bc 7617 2f3d
000001f0: 9ccf 853c 9d54 923d 2881 09bd d235 413d
00000200: 62f9 2b3d 8823 20bd e380 a73d faaf 6fbd
00000210: 0048 dcb9 fecf 6dbd 09da 953d 14c4 f2bc
00000220: 606c 803c 41ae 42bd bd76 22bd 800f b0bd
00000230: ceac efbc 60f2 69bd 07d7 a03d 000d 033d
00000240: d2ae 2a3d c99a 4bbd 1513 963d f390 0cbd
00000250: 40d5 b23c 8b44 a53d e07c fb3c a813 a13c
00000260: f271 0e3d 2625 a2bd 3a2b e7bc 77f0 9fbd
00000270: 12c6 333d 3039 443c 8447 2fbd 6059 7cbd
00000280: 075e 99bd 7a3e 09bd 3419 d93c 222e 623d
00000290: 400d a33a 85be a1bd 305c b9bc 30ab 29bc
000002a0: a01c 523c 9353 983d 7252 703d 0097 9a3a
000002b0: 21ee b33d b1e7 ad3d 192a 13bd ae60 5b3d
000002c0: 515b 5bbd 4c23 b83c 05cb 933d f2db 163d
000002d0: 56fe 593d 5878 ee3c 328f a6bd a648 69bd
000002e0: 40f0 a63c 5637 6a3d 6087 0f3b 3b0c 963d
000002f0: 00fd 1a3a a3fd 8c3d cfd7 55bd cf91 973d
00000300: 7689 75bd 87ee ab3d 60d8 a3bd c249 573d
00000310: ca32 a4bd 7d87 9dbd 3d11 aa3d 40ee b9bc
00000320: 1378 99bd 45e4 843d ca80 eabc 048e 073d
00000330: b355 863d 00b5 a2bb be07 273d 7e72 36bd
00000340: 362f 7cbd c4aa b03c ccc9 9bbc 08a8 14bc
00000350: d403 da3c 3afa a5bd b291 643d 9f31 8d3d
00000360: 08d5 11bc 940c 82bc 9ec4 5a3d 708b 8d3c
00000370: 40bc b2bb d9cb 8a3d cc46 80bc 7762 8e3d
00000380: 0070 453c 4df1 15bd 97bf a03d 80ee 583c
00000390: 785a 6dbd 9654 4abd a0c5 8ebd 1c65 84bc
000003a0: baa8 1d3d bb60 94bd f8a7 0abc b8ba 013d
000003b0: a1f5 87bd 2e0f 7dbd 78e1 be3c e496 ed3c
000003c0: 9488 9cbc 3887 46bc 3310 af3d a06d 433b
000003d0: b2c0 243d ae98 20bd 879b 55bd 34e7 adbc
000003e0: 66ae 1ebd b079 86bc 9891 d3bc 1a64 313d
000003f0: 8901 0dbd f464 ccbc cc75 ba3c 9141 923d

fc2.bias f4 [64]
0.08423523 -0.08566809 -0.0118201375 0.06932803 0.0854513 -0.07124905 -0.08526157 -0.0776734
0.07464071 0.07259401 0.087734126 -0.06252227 0.066124134 -0.070348345 0.08386452 0.0768409
-0.07667133 -0.003105931 0.046109386 0.063746445 0.04808242 -0.07893152 0.048970737 -0.06723093
0.038090475 0.03872732 0.0077439323 -0.06546163 0.08740591 0.055339314 -0.04897902 0.04515464
0.011373341 -0.034138717 -0.06953248 0.027065337 -0.07538285 0.0040874556 0.07214675 0.022496954
0.017501384 0.028702423 0.08185037 0.02374307 0.07606096 -0.027935509 -0.054621197 0.014071032
-0.018317662 0.044961832 0.026684046 0.050516523 -0.0075504705 0.028569713 -0.0037437677 0.0695227
-0.0120258555 0.021282911 0.08719125 0.012628347 -0.075126536 0.021039762 0.0673332 -0.05658934
00000000: 8583 ac3d c072 afbd 40a9 41bc dbfb 8d3d
00000010: 1701 af3d 06eb 91bd 9e9d aebd 3b13 9fbd
00000020: 3bdd 983d 2bac 943d f3ad b33d ad0b 80bd
00000030: 176c 873d cb12 90bd 29c1 ab3d c35e 9d3d
00000040: dc05 9dbd e08c 4bbb 32dd 3c3d 7f8d 823d
00000050: 12f2 443d d9a6 a1bd 8a95 483d 5fb0 89bd
00000060: c204 1c3d 8aa0 1e3d d0c0 fd3b bf10 86bd
00000070: df01 b33d 7aab 623d 3a9e 48bd 12f4 383d
00000080: 4057 3a3c 0ad5 0bbd 0b67 8ebd 20b8 dd3c
00000090: 5362 9abd 10f0 853b adc1 933d 884b b83c
000000a0: 105f 8f3c 5821 eb3c 2ba1 a73d d480 c23c
000000b0: d9c5 9b3d 02d9 e4bc 7aba 5fbd 308a 663c
000000c0: ec0e 96bc e629 383d 8098 da3c 6aea 4e3d
000000d0: f069 f7bb 080b ea3c 005a 75bb eb61 8e3d
000000e0: 1808 45bc 8059 ae3c 5391 b23d 20e7 4e3c
000000f0: f1db 99bd 945b ac3c fde5 893d 39ca 67bd

fc3.weight f4 [16, 64]
-0.086749524 0.0061932653 0.06030616 0.02929692 0.10411717 -0.05362563 0.048697397 -0.086376965
-0.007828638 0.07675061 0.06438057 0.09137583 -0.11945811 0.051948383 0.11331174 -0.0862477
-0.024903536 -0.035173953 0.1248858 -0.04027094 -0.024777904 0.12064454 0.097666904 -0.0759725
-0.10816342 -0.012415841 -0.11255281 -0.113574445 -0.09255119 -0.004218608 0.097916484 0.0028714836
0.09296289 0.008369952 0.08862686 0.10129233 0.06704144 0.010943383 -0.08333777 -0.07169908
-0.06571917 0.11537193 0.08153179 0.07327089 0.09152928 0.0955694 0.02643925 0.08599912
-0.11001074 0.10091552 0.119022384 0.04129204 -0.046351254 0.0009124428 0.07243241 -0.001901269
-0.0034180135 -0.109309345 -0.10728517 0.0039896667 0.07264136 0.02143009 0.01197806 0.07919821
-0.009018481 -0.03276539 -0.021006867 -0.092100605 -0.069333 -0.0688615 -0.09705521 -0.08214258
-0.040958196 0.0966274 0.054244086 -0.04706292 0.03366825 -0.030895486 -0.06841004 0.011406407
0.11194058 -0.10643926 0.11019927 0.027530476 0.059947863 0.048455656 0.069221064 0.022843555
0.025332287 0.11382949 -0.018075272 0.10617767 -0.07646234 -0.12380436 0.02076158 0.11219931
-0.002778992 0.10550775 -0.060647875 0.10250908 -0.026626244 0.025827467 0.0066016614 0.09558451
-0.112004474 0.018042192 -0.037598655 -0.024090737 0.043169677 0.04277779 0.033565402 -0.015936911
-0.11943331 0.07943353 0.12467936 -0.03333628 -0.08639477 -0.050165325 -0.040136755 -0.07405372
-0.0641512 -0.070531875 -0.041190088 0.11490519 -0.036884874 -0.06486791 0.05359991 0.06262815
0.11618453 0.047626987 0.027482912 -0.02871415 -0.055334494 -0.07760188 0.06799458 -0.035889983
0.071490824 0.076313496 0.11824001 -0.12316656 0.06881915 -0.023659363 0.052478954 -0.015717551
-0.07010397 0.07087609 -0.10032983 -0.07106939 0.040091112 0.065740556 -0.07515469 -0.092659324
-0.07509318 0.10689123 -0.00076656044 -0.09858444 0.05011353 0.103134185 -0.031022877 0.08577612
0.12327942 -0.007905781 0.06965913 0.120951265 -0.0771867 -0.106706664 0.09340729 0.0074944347
-0.10214415 -0.12111203 0.06971553 -0.043301404 0.09009993 0.08027932 -0.08708468 0.006140694
-0.057475924 0.10758081 0.019211516 -0.10373549 0.10734427 0.077495575 0.072274104 0.07764651
0.038117856 0.08646327 0.012925729 -0.037798345 0.033661112 0.03140223 0.01865843 -0.0855702
-0.030192837 0.10588698 -0.08279012 -0.04088621 -0.029444247 0.0030831844 -0.06499408 0.017562523
0.07151191 0.09684129 -0.027804926 -0.030708462 -0.05431372 0.033574045 -0.10607913 -0.082934186
0.08402151 -0.085766986 -0.0035122335 -0.03851807 -0.08132771 0.056406796 -0.09478092 0.121017545
0.1131756 0.047141105 -0.10869655 0.03642665 -0.019868568 0.1048644 -0.11179936 0.12226668
0.05691032 -0.09258044 -0.0001245141 0.05993098 -0.0049580634 0.04556103 -0.03283283 -0.048006043
0.009573773 -0.082618624 -0.12138139 -0.11948794 -0.063581765 -0.048445344 0.032551646 -0.008945242
0.08301751 -0.116349846 0.06842165 -0.03479494 0.01635331 0.0086226165 0.05686325 -0.05591859
-0.010500535 -0.09914434 0.081630275 0.03414744 0.060984522 0.11610143 -0.008065492 0.017593592
00000000: bca9 b1bd e0f0 ca3b 9803 773d 1800 f03c
00000010: 623b d53d 8ca6 5bbd ec76 473d 68e6 b0bd
00000020: b043 00bc 6c2f 9d3d f6d9 833d 4023 bb3d
00000030: 74a6 f4bd d4c7 543d fc0f e83d a2a2 b0bd
00000040: 8002 ccbc 9012 10bd 20c4 ff3d 24f3 24bd
00000050: 08fb cabc 7c14 f73d 9605 c83d 7897 9bbd
00000060: c884 ddbd d06b 4bbc 1682 e6bd b899 e8bd
00000070: 7a8b bdbd 403c 8abb 7088 c83d 802f 3c3b
00000080: 5463 be3d 2022 093c 0082 b53d 5a72 cf3d
00000090: 064d 893d e04b 333c feac aabd f8d6 92bd
000000a0: c697 86bd 1e48 ec3d 24fa a63d 0c0f 963d
000000b0: b473 bb3d e4b9 c33d 2097 d83c 4e20 b03d
000000c0: 504d e1bd ccac ce3d 02c2 f33d d821 293d
000000d0: d0da 3dbd 0031 6f3a 7257 943d 0034 f9ba
000000e0: c000 60bb 94dd dfbd 54b8 dbbd c0bb 823b
000000f0: fec4 943d 288e af3c a03f 443c ac32 a23d
00000100: 40c2 13bc 0035 06bd 9816 acbc 3e9f bcbd
00000110: 76fe 8dbd 4207 8dbd e2c4 c6bd 5e3a a8bd
00000120: c8c3 27bd 96e4 c53d 0c2f 5e3d 0cc5 40bd
00000130: b8e7 093d 8818 fdbc 901a 8cbd f0e1 3a3c
00000140: 1a41 e53d d4fc d9bd 28b0 e13d 9887 e13c
00000150: e48b 753d 7079 463d c6c3 8d3d 6822 bb3c
00000160: a885 cf3c 701f e93d 9812 94bc ae73 d93d
00000170: 4a98 9cbd 248d fdbd 3014 aa3c c0c8 e53d
00000180: c01f 36bb 7214 d83d e869 78bd 48f0 d13d
00000190: 481f dabc 2094 d33c c052 d83b d0c1 c33d
000001a0: 9a62 e5bd 38cd 933c 0c01 1abd f059 c5bc
000001b0: b0d2 303d c437 2f3d e07b 093d 208e 82bc
000001c0: 7499 f4bd 0cae a23d e457 ff3d a08b 08bd
000001d0: beef b0bd 287a 4dbd 7066 24bd 7aa9 97bd
000001e0: b461 83bd 0473 90bd f0b6 28bd 6a53 eb3d
000001f0: 9814 17bd 78d9 84bd 948b 5b3d 3043 803d
00000200: 28f2 ed3d 8414 433d d823 e13c f039 ebbc
00000210: 6ca6 62bd bced 9ebd be40 8b3d 6001 13bd
00000220: c869 923d 404a 9c3d d227 f23d c03e fcbd
00000230: 0ef1 8c3d 48d1 c1bc 2cf4 563d 18c2 80bc
00000240: ac92 8fbd 7c27 913d ba79 cdbd d48c 91bd
00000250: 9436 243d fca2 863d b4ea 99bd 2cc4 bdbd
00000260: 74ca 99bd cae9 da3d 00f3 48ba a4e6 c9bd
00000270: d843 4d3d 0438 d33d b023 febc 64ab af3d
00000280: ec79 fc3d 4087 01bc 72a9 8e3d 4cb5 f73d
00000290: 1014 9ebd 0689 dabd 524c bf3d e093 f53b
000002a0: f430 d1bd 9609 f8bd 04c7 8e3d d05c 31bd
000002b0: 5086 b83d 7c69 a43d 7459 b2bd e037 c93b
000002c0: e06b 6bbd 5453 dc3d 7861 9d3c 4673 d4bd
000002d0: 50d7 db3d 00b6 9e3d 7204 943d 2205 9f3d
000002e0: 7821 1c3d a813 b13d 70c6 533c 70d2 1abd
000002f0: 3ce0 093d a09f 003d 90d9 983c 6e3f afbd
00000300: f856 f7bc 46db d83d de8d a9bd 4c78 27bd
00000310: 1035 f1bc 400f 4a3b 9e1b 85bd 48df 8f3c
00000320: d674 923d ba54 c63d 28c7 e3bc 5090 fbbc
00000330: 1078 5ebd f084 093d 0440 d9bd 66d9 a9bd
00000340: 7813 ac3d 9aa6 afbd 802d 66bb 20c5 1dbd
00000350: 248f a6bd d00a 673d 801c c2bd 0cd8 f73d
00000360: 9cc8 e73d 0817 413d 4c9c debd 1c34 153d
00000370: 68c3 a2bc 26c3 d63d 10f7 e4bd f466 fa3d
00000380: cc1a 693d d09a bdbd 0090 02b9 307a 753d
00000390: 4077 a2bb 349e 3a3d b87b 06bd fca1 44bd
000003a0: 50db 1c3c f433 a9bd ce96 f8bd 18b6 f4bd
000003b0: 2837 82bd a06e 46bd e054 053d 108f 12bc
000003c0: 1605 aa3d d448 eebd a620 8c3d 2485 0ebd
000003d0: 60f7 853c e045 0d3c 70e9 683d e40a 65bd
000003e0: 700a 2cbc 300c cbbd c62d a73d 30de 0b3d
000003f0: e8ca 793d 96c6 ed3d 2025 04bc 7020 903c

fc3.bias f4 [16]
-0.013512343 0.07569517 0.051513612 -0.017655447 0.047055006 -0.06380744 0.10953125 0.026585579
-0.08697063 -0.110948175 0.07256466 -0.054840595 -0.0040297955 0.051586643 0.12377849 0.08467464
00000000: e062 5dbc 1206 9b3d f0ff 523d 28a2 90bc
00000010: c0bc 403d 7aad 82bd ec51 e03d 00ca d93c
00000020: a81d b2bd cc38 e3bd c89c 943d 88a0 60bd
00000030: 600c 84bb 844c 533d 947f fd3d e669 ad3d

actor_fc1.weight f4 [8, 16]
-0.08609307 0.055390567 0.18639252 0.14557844 -0.2123735 0.072273165 -0.1101225 -0.16521221
0.051947623 0.17687139 0.02415973 0.048768967 -0.20214227 -0.19109356 -0.24558711 -0.021135509
-0.13768613 -0.109726965 -0.15051854 -0.017418236 -0.019501984 0.17255312 0.010838002 0.14136982
-0.077587694 0.23172396 -0.19936493 -0.18154219 -0.020362496 0.19021368 -0.17900068 -0.16473943
0.14925113 0.07323679 -0.14197668 0.09194881 -0.14790973 0.06453434 -0.046337396 0.053895324
-0.067501605 -0.23131359 -0.15479746 -0.1186181 0.09092727 0.10283828 0.0012554526 -0.17708457
-0.24984375 -0.23673508 -0.026580751 0.09618631 0.036336362 -0.05154255 -0.061515003 0.24532935
0.19699281 0.16509944 -0.20503819 -0.20443267 0.11111903 0.1264906 -0.18968123 -0.08923006
0.036482602 -0.17286581 0.09164664 -0.055348814 0.027329236 -0.0872598 0.10024619 0.21004823
-0.04984054 -0.2063464 -0.1325416 0.24878824 -0.05413404 -0.11798629 -0.123393625 0.04617995
-0.11940664 -0.15080401 -0.16133335 0.18437466 0.08973664 -0.1100069 0.22131169 0.008687258
0.048276693 0.032756537 -0.008182794 -0.23263788 0.06553942 0.08233577 -0.106096506 -0.15253207
0.24758089 0.011609346 -0.00081560016 -0.08695406 -0.0027275383 0.040604383 0.21874502 -0.079910666
-0.12436813 -0.018836677 0.04289159 0.04922521 -0.048612267 0.17135349 0.21228257 -0.2110739
-0.06526968 -0.0828796 0.15416974 0.1926249 -0.17381838 0.14804602 -0.07767719 -0.21490276
-0.19140768 0.22797927 -0.23881459 -0.026034087 -0.24368772 0.20101619 0.18260208 0.07876021
00000000: 9051 b0bd 38e1 623d aedd 3e3e 8412 153e
00000010: 7078 59be f403 943d e887 e1bd 642d 29be
00000020: 08c7 543d c61d 353e a0ea c53c f8c1 473d
00000030: 62fe 4ebe 08ae 43be 307b 7bbe 6024 adbc
00000040: 98fd 0cbe 88b8 e0bd 8821 1abe b0b0 8ebc
00000050: a0c2 9fbc c4b1 303e e091 313c 40c3 103e
00000060: 4ce6 9ebd 0c49 6d3e 5226 4cbe 32e6 39be
00000070: 40cf a6bc 60c7 423e f44b 37be 74b1 28be
00000080: 4ad5 183e 2cfd 953d 5662 11be a84f bc3d
00000090: a675 17be 942a 843d 48cc 3dbd 58c1 5c3d
000000a0: 483e 8abd 78dd 6cbe 3a83 1ebe 0cee f2bd
000000b0: 1438 ba3d e09c d23d 008e a43a a855 35be
000000c0: 0ad7 7fbe ae6a 72be e0bf d9bc 54fd c43d
000000d0: 70d5 143d 481e 53bd 28f7 7bbd 9e37 7b3e
000000e0: 7cb8 493e d40f 293e 88f5 51be cc56 51be
000000f0: 6092 e33d c086 013e cc3b 42be 40be b6bd
00000100: c86e 153d bc03 31be 3cb1 bb3d 70b5 62bd
00000110: 90e1 df3c 44b5 b2bd e04d cd3d e216 573e
00000120: 9825 4cbd 784c 53be fcb8 07be 58c2 7e3e
00000130: a8bb 5dbd cca2 f1bd ccb5 fcbd 3027 3d3d
00000140: 788b f4bd 5e6c 1abe 9234 25be b6cc 3c3e
00000150: d8c7 b73d 4c4b e1bd 889f 623e 0055 0e3c
00000160: c8bd 453d b82b 063d 2011 06bc a038 6ebe
00000170: 8839 863d a89f a83d 2049 d9bd 5e31 1cbe
00000180: d885 7d3e 2035 3e3c 00ce 55ba f814 b2bd
00000190: 80c0 32bb c850 263d b2fe 5f3e 34a8 a3bd
000001a0: b8b4 febd 604f 9abc 18af 2f3d 60a0 493d
000001b0: a81d 47bd 4a77 2f3e 9a60 593e c223 58be
000001c0: 1cac 85bd c8bc a9bd acde 1d3e 763f 453e
000001d0: 72fd 31be 6099 173e 3815 9fbd 780f 5cbe
000001e0: 6000 44be 6673 693e d08b 74be 7045 d5bc
000001f0: 4689 79be 30d7 4d3e 0afc 3a3e 084d a13d

actor_fc1.bias f4 [8]
0.15909189 0.19488019 0.16701362 -0.12874424 0.034387648 -0.24746758 -0.2015996 -0.13437873
00000000: fce8 223e ac8e 473e 9e05 2b3e 88d5 03be
00000010: 10da 0c3d 2468 7dbe 2070 4ebe 949a 09be

actor_fc2.weight f4 [4, 8]
-0.17981455 -0.13017017 0.07955971 0.036886424 -0.33746696 -0.14184071 -0.09253502 -0.23119119
0.10571134 0.22617719 0.032115728 0.12385613 -0.30464244 -0.2268512 -0.30987412 -0.21231061
0.22709373 -0.2577778 -0.062383622 0.286697 -0.2977545 0.32897416 0.07931176 -0.25476635
-0.32739836 -0.0019297898 -0.18409254 -0.09655619 0.09533894 0.15942433 0.2882217 0.039657563
00000000: 4e21 38be 544b 05be 34f0 a23d 3816 173d
00000010: 78c8 acbe b13e 11be 0083 bdbd 62bd 6cbe
00000020: 307f d83d fe9a 673e c88b 033d 48a8 fd3d
00000030: 18fa 9bbe ae4b 68be d2a7 9ebe f467 59be
00000040: 428b 683e 74fb 83be f885 7fbd f3c9 923e
00000050: 4773 98be 4d6f a83e 346e a23d bc70 82be
00000060: c2a0 a7be 00f1 fcba c182 3cbe 40bf c5bd
00000070: 1041 c33d 2240 233e cb91 933e f86f 223d

actor_fc2.bias f4 [4]
0.2937145 -0.35217595 0.23137799 0.082951814
00000000: bf61 963e 6850 b4be 5aee 6c3e a4e2 a93d

critic_fc1.weight f4 [8, 16]
-0.16465771 0.11383611 -0.1458568 0.04061064 0.23550588 -0.09249085 -0.22589618 -0.16239369
-0.17096221 0.24099335 0.00017929077 -0.19613618 -0.15620235 0.12413955 -0.0769164 -0.19280696
-0.20614019 -0.1876002 0.020928234 0.21020159 0.21258718 -0.0094539225 0.22658387 0.19682994
-0.24611086 0.1092599 0.22659191 -0.1884017 -0.16443941 -0.1394096 -0.20242372 0.0932492
0.13999945 0.15508714 -0.16888142 0.08604422 0.2405946 -0.16828397 -0.049358934 0.21502122
0.10733518 -0.17408177 0.17273414 0.24195859 0.17726314 0.02993989 -0.15511698 0.16644818
0.037400335 -0.23184854 0.09402758 0.1010257 0.20202845 -0.010455519 0.10752946 0.073039144
-0.18095598 -0.114225715 -0.14091697 -0.22102925 -0.18689856 -0.18338776 0.06402069 -0.10243237
-0.026388884 0.19126472 -0.20306599 -0.21808597 -0.122166306 -0.011673272 -0.02712071 -0.04727012
0.07258001 0.014657766 0.08297849 -0.036950916 -0.24963343 -0.062222064 0.21875867 -0.095654905
-0.015196949 0.20573485 -0.22867605 0.04224336 0.16811904 0.056361645 0.16345742 0.093610555
-0.14334899 0.18166977 -0.21164832 0.06539962 0.16627914 -0.044439137 -0.05189556 -0.08193743
-0.021456152 0.14148188 0.063255906 -0.025679946 -0.019070387 -0.18033364 -0.03212166 -0.019805908
-0.1531187 -0.046526134 0.17881745 0.18668804 0.15995964 -0.14418575 0.17543066 -0.036988825
0.22490609 0.05714786 -0.05256012 0.19638741 0.039436698 0.13001776 0.14598495 0.20179859
0.053153038 -0.01797849 -0.015630335 -0.023277014 0.24146056 -0.09089488 0.08894843 0.16000381
00000000: 089c 28be e822 e93d 7c5b 15be 5857 263d
00000010: 7428 713e d86b bdbd 5451 67be 884a 26be
00000020: b810 2fbe f6c6 763e 0000 3c39 ecd7 48be
00000030: 82f3 1fbe e03c fe3d 5886 9dbd 306f 45be
00000040: 6a16 53be 441a 40be b071 ab3c 163f 573e
00000050: 74b0 593e a0e4 1abc 9a05 683e ca8d 493e
00000060: 7c04 7cbe a8c3 df3d b607 683e 60ec 40be
00000070: ce62 28be 64c1 0ebe 2a48 4fbe 70f9 be3d
00000080: 045c 0f3e 2acf 1e3e 40ef 2cbe f437 b03d
00000090: 6e5e 763e a252 2cbe 982c 4abd 862e 5c3e
000000a0: 8cd2 db3d 7e42 32be 38e1 303e fec3 773e
000000b0: 7884 353e 8044 f53c fcd6 1ebe 6471 2a3e
000000c0: 1831 193d b469 6dbe 8891 c03d 90e6 ce3d
000000d0: 8ce0 4e3e a04d 2bbc 6838 dc3d 8c95 953d
000000e0: 864c 39be 2cef e9bd 8a4c 10be 7e55 62be
000000f0: 5662 3fbe 00ca 3bbe 481d 833d 10c8 d1bd
00000100: 802d d8bc e6da 433e 88f0 4fbe ee51 5fbe
00000110: 5432 fabd 4041 3fbc 402c debc 509e 41bd
00000120: d4a4 943d 2027 703c a0f0 a93d d859 17bd
00000130: e89f 7fbe 90dc 7ebd 4602 603e b8e6 c3bd
00000140: a0fc 78bc 28ac 523e 0e2a 6abe 6007 2d3d
00000150: 6627 2c3e 78db 663d 6261 273e e4b6 bf3d
00000160: 14ca 12be a407 3a3e 56ba 58be 3cf0 853d
00000170: 1445 2a3e d005 36bd 7090 54bd d0ce a7bd
00000180: d0c4 afbc a0e0 103e 508c 813d c05e d2bc
00000190: 8039 9cbc 62a9 38be 0092 03bd 0040 a2bc
000001a0: 26cb 1cbe 3092 3ebd ec1b 373e 262b 3f3e
000001b0: 76cc 233e 6ea5 13be 18a4 333e 9881 17bd
000001c0: c84d 663e e013 6a3d 4849 57bd c819 493e
000001d0: 6088 213d 6023 053e 147d 153e 4aa4 4e3e
000001e0: 00b7 593d a047 93bc 300b 80bc 70af bebc
000001f0: 7041 773e 1827 babd 982a b63d 0ad8 233e

critic_fc1.bias f4 [8]
-0.03154412 0.18769634 -0.06771654 -0.109215885 0.07277036 -0.19225398 0.13037345 0.22249505
00000000: 6834 01bd 7833 403e f8ae 8abd 94ac dfbd
00000010: a008 953d 3ade 44be 9e80 053e bed5 633e

critic_fc2.weight f4 [1, 8]
-0.16422422 -0.026371002 -0.09963137 0.2660512 -0.3533613 -0.18598185 -0.11811763 -0.22770295
00000000: 652a 28be 0008 d8bc 880b ccbd dd37 883e
00000010: c6eb b4be 0772 3ebe a8e7 f1bd f62a 69be
